…
screte(8)', 'n_envs': 12, 'n_steps': 16384, 'gamma': 0.999, 'gae_lambda': 0.95, 'ent_coef': 0.0, 'vf_coef': 0.5, 'max_grad_norm': 0.5, 'batch_size': 512, 'n_epochs': 1, 'clip_range': '<function constant_fn.<locals>.func at 0x0000023FB9C9B100>', 'clip_range_vf': 'None', 'normalize_advantage': 'True', 'target_kl': 'None', 'lr_schedule': '<function constant_fn.<locals>.func at 0x0000023FFB6E6480>', 'rollout_buffer': '<stable_baselines3.common.buffers.RolloutBuffer object at 0x0000023FB9CCF790>', 'policy': 'ActorCriticCnnPolicy(\n  (features_extractor): NatureCNN(\n    (cnn): Sequential(\n      (0): Conv2d(3, 32, kernel_size=(8, 8), stride=(4, 4))\n      (1): ReLU()\n      (2): Conv2d(32, 64, kernel_size=(4, 4), stride=(2, 2))\n      (3): ReLU()\n      (4): Conv2d(64, 64, kernel_size=(3, 3), stride=(1, 1))\n      (5): ReLU()\n      (6): Flatten(start_dim=1, end_dim=-1)\n    )\n    (linear): Sequential(\n      (0): Linear(in_features=768, out_features=512, bias=True)\n      (1): ReLU()\n    )\n  )\n  (pi_features_extractor): NatureCNN(\n    (cnn): Sequential(\n      (0): Conv2d(3, 32, kernel_size=(8, 8), stride=(4, 4))\n      (1): ReLU()\n      (2): Conv2d(32, 64, kernel_size=(4, 4), stride=(2, 2))\n      (3): ReLU()\n      (4): Conv2d(64, 64, kernel_size=(3, 3), stride=(1, 1))\n      (5): ReLU()\n      (6): Flatten(start_dim=1, end_dim=-1)\n    )\n    (linear): Sequential(\n      (0): Linear(in_features=768, out_features=512, bias=True)\n      (1): ReLU()\n    )\n  )\n  (vf_features_extractor): NatureCNN(\n    (cnn): Sequential(\n      (0): Conv2d(3, 32, kernel_size=(8, 8), stride=(4, 4))\n      (1): ReLU()\n      (2): Conv2d(32, 64, kernel_size=(4, 4), stride=(2, 2))\n      (3): ReLU()\n      (4): Conv2d(64, 64, kernel_size=(3, 3), stride=(1, 1))\n      (5): ReLU()\n      (6): Flatten(start_dim=1, end_dim=-1)\n    )\n    (linear): Sequential(\n      (0): Linear(in_features=768, out_features=512, bias=True)\n      (1): ReLU()\n    )\n  )\n  (mlp_extractor): MlpExtractor(\n    (policy_net): Sequential()\n    (value_net): Sequential()\n  )\n  (action_net): Linear(in_features=512, out_features=8, bias=True)\n  (value_net): Linear(in_features=512, out_features=1, bias=True)\n)', '_logger': '<stable_baselines3.common.logger.Logger object at 0x0000023FB899C0D0>'}
2024-06-20 13:04:33,119 WARNING MsgRouterThr:24844 [router.py:message_loop():77] message_loop has been closed
